weight.npz (npz, 974 bytes, 3 tensors)

x_mean f8 [9]
0	0x3fe93d9b31b5c020	0.7887702914140426
1	0x4007b77368648997	2.9645755916291807
2	0x400b677dd2700d9e	3.425532955212204
3	0x4008eaabbc1b7001	3.1145853706239
4	0x404edcda4226833e	61.72541071777822
5	0x404cb0ebaea61649	57.38219245061607
6	0x4016da313b37077c	5.713078427537649
7	0x4016dd2afa0cc3f5	5.715984255818502
8	0x400c36b32519c906	3.526708879327205

x_std f8 [9]
0	0x3fdc2559d852a698	0.43977972150114786
1	0x3ff0d3540927c437	1.051593814623869
2	0x3ffae58fe05e8f19	1.6810454143932871
3	0x3ffaa6cfd1b81249	1.6657255355977603
4	0x3ff485a7f7272704	1.282630887452286
5	0x4000991e9e6f4a62	2.0747654321397
6	0x3ff1edeeb463658e	1.1205889746109707
7	0x3ff1d361b4706936	1.1141068504717402
8	0x3fe61793ebaf72ab	0.6903781512479176

theta f8 [10, 1]
0	0x40af3c9e3a395c3f	3998.309037964354
1	0x40b2e7686e409cd0	4839.407932318005
2	0x4059b4beb8f248a5	102.8241407743504
3	0x4082323b89429979	582.2790703967177
4	0x408b9904870102a4	883.1272106245929
5	0xc0353e5447fbf1b1	-21.243473528871338
6	0xc050933609cf74bb	-66.30017323741315
7	0xc078179c96368267	-385.47572919171074
8	0xc0633248dae30990	-153.5713934358905
9	0xc079655ca73fb890	-406.33512043848987
